{"class_name": "Model", "keras_version": "1.2.2", "config": {"layers": [{"class_name": "InputLayer", "config": {"batch_input_shape": [null, null, 45], "input_dtype": "float32", "sparse": false, "name": "input_2"}, "inbound_nodes": [], "name": "input_2"}, {"class_name": "Convolution1D", "config": {"W_constraint": null, "b_constraint": null, "name": "convolution1d_11", "activity_regularizer": null, "trainable": true, "filter_length": 6, "init": "he_normal", "bias": true, "nb_filter": 10, "input_dim": null, "subsample_length": 1, "border_mode": "same", "b_regularizer": null, "W_regularizer": null, "activation": "relu", "input_length": null}, "inbound_nodes": [[["input_2", 0, 0]]], "name": "convolution1d_11"}, {"class_name": "Convolution1D", "config": {"W_constraint": null, "b_constraint": null, "name": "convolution1d_21", "activity_regularizer": null, "trainable": true, "filter_length": 10, "init": "he_normal", "bias": true, "nb_filter": 10, "input_dim": null, "subsample_length": 1, "border_mode": "same", "b_regularizer": null, "W_regularizer": null, "activation": "relu", "input_length": null}, "inbound_nodes": [[["input_2", 0, 0]]], "name": "convolution1d_21"}, {"class_name": "BatchNormalization", "config": {"gamma_regularizer": null, "name": "batchnormalization_11", "epsilon": 0.001, "trainable": true, "mode": 0, "beta_regularizer": null, "momentum": 0.99, "axis": 2}, "inbound_nodes": [[["convolution1d_11", 0, 0]]], "name": "batchnormalization_11"}, {"class_name": "BatchNormalization", "config": {"gamma_regularizer": null, "name": "batchnormalization_21", "epsilon": 0.001, "trainable": true, "mode": 0, "beta_regularizer": null, "momentum": 0.99, "axis": 2}, "inbound_nodes": [[["convolution1d_21", 0, 0]]], "name": "batchnormalization_21"}, {"class_name": "Activation", "config": {"activation": "relu", "trainable": true, "name": "activation_11"}, "inbound_nodes": [[["batchnormalization_11", 0, 0]]], "name": "activation_11"}, {"class_name": "Activation", "config": {"activation": "relu", "trainable": true, "name": "activation_21"}, "inbound_nodes": [[["batchnormalization_21", 0, 0]]], "name": "activation_21"}, {"class_name": "Convolution1D", "config": {"W_constraint": null, "b_constraint": null, "name": "convolution1d_12", "activity_regularizer": null, "trainable": true, "filter_length": 6, "init": "he_normal", "bias": true, "nb_filter": 10, "input_dim": null, "subsample_length": 1, "border_mode": "same", "b_regularizer": null, "W_regularizer": null, "activation": "relu", "input_length": null}, "inbound_nodes": [[["activation_11", 0, 0]]], "name": "convolution1d_12"}, {"class_name": "Convolution1D", "config": {"W_constraint": null, "b_constraint": null, "name": "convolution1d_22", "activity_regularizer": null, "trainable": true, "filter_length": 10, "init": "he_normal", "bias": true, "nb_filter": 10, "input_dim": null, "subsample_length": 1, "border_mode": "same", "b_regularizer": null, "W_regularizer": null, "activation": "relu", "input_length": null}, "inbound_nodes": [[["activation_21", 0, 0]]], "name": "convolution1d_22"}, {"class_name": "BatchNormalization", "config": {"gamma_regularizer": null, "name": "batchnormalization_12", "epsilon": 0.001, "trainable": true, "mode": 0, "beta_regularizer": null, "momentum": 0.99, "axis": 2}, "inbound_nodes": [[["convolution1d_12", 0, 0]]], "name": "batchnormalization_12"}, {"class_name": "BatchNormalization", "config": {"gamma_regularizer": null, "name": "batchnormalization_22", "epsilon": 0.001, "trainable": true, "mode": 0, "beta_regularizer": null, "momentum": 0.99, "axis": 2}, "inbound_nodes": [[["convolution1d_22", 0, 0]]], "name": "batchnormalization_22"}, {"class_name": "Activation", "config": {"activation": "relu", "trainable": true, "name": "activation_12"}, "inbound_nodes": [[["batchnormalization_12", 0, 0]]], "name": "activation_12"}, {"class_name": "Activation", "config": {"activation": "relu", "trainable": true, "name": "activation_22"}, "inbound_nodes": [[["batchnormalization_22", 0, 0]]], "name": "activation_22"}, {"class_name": "Convolution1D", "config": {"W_constraint": null, "b_constraint": null, "name": "convolution1d_13", "activity_regularizer": null, "trainable": true, "filter_length": 6, "init": "he_normal", "bias": true, "nb_filter": 10, "input_dim": null, "subsample_length": 1, "border_mode": "same", "b_regularizer": null, "W_regularizer": null, "activation": "relu", "input_length": null}, "inbound_nodes": [[["activation_12", 0, 0]]], "name": "convolution1d_13"}, {"class_name": "Convolution1D", "config": {"W_constraint": null, "b_constraint": null, "name": "convolution1d_23", "activity_regularizer": null, "trainable": true, "filter_length": 10, "init": "he_normal", "bias": true, "nb_filter": 10, "input_dim": null, "subsample_length": 1, "border_mode": "same", "b_regularizer": null, "W_regularizer": null, "activation": "relu", "input_length": null}, "inbound_nodes": [[["activation_22", 0, 0]]], "name": "convolution1d_23"}, {"class_name": "BatchNormalization", "config": {"gamma_regularizer": null, "name": "batchnormalization_13", "epsilon": 0.001, "trainable": true, "mode": 0, "beta_regularizer": null, "momentum": 0.99, "axis": 2}, "inbound_nodes": [[["convolution1d_13", 0, 0]]], "name": "batchnormalization_13"}, {"class_name": "BatchNormalization", "config": {"gamma_regularizer": null, "name": "batchnormalization_23", "epsilon": 0.001, "trainable": true, "mode": 0, "beta_regularizer": null, "momentum": 0.99, "axis": 2}, "inbound_nodes": [[["convolution1d_23", 0, 0]]], "name": "batchnormalization_23"}, {"class_name": "Activation", "config": {"activation": "relu", "trainable": true, "name": "activation_13"}, "inbound_nodes": [[["batchnormalization_13", 0, 0]]], "name": "activation_13"}, {"class_name": "Activation", "config": {"activation": "relu", "trainable": true, "name": "activation_23"}, "inbound_nodes": [[["batchnormalization_23", 0, 0]]], "name": "activation_23"}, {"class_name": "Convolution1D", "config": {"W_constraint": null, "b_constraint": null, "name": "convolution1d_14", "activity_regularizer": null, "trainable": true, "filter_length": 6, "init": "he_normal", "bias": true, "nb_filter": 10, "input_dim": null, "subsample_length": 1, "border_mode": "same", "b_regularizer": null, "W_regularizer": null, "activation": "relu", "input_length": null}, "inbound_nodes": [[["activation_13", 0, 0]]], "name": "convolution1d_14"}, {"class_name": "Convolution1D", "config": {"W_constraint": null, "b_constraint": null, "name": "convolution1d_24", "activity_regularizer": null, "trainable": true, "filter_length": 10, "init": "he_normal", "bias": true, "nb_filter": 10, "input_dim": null, "subsample_length": 1, "border_mode": "same", "b_regularizer": null, "W_regularizer": null, "activation": "relu", "input_length": null}, "inbound_nodes": [[["activation_23", 0, 0]]], "name": "convolution1d_24"}, {"class_name": "BatchNormalization", "config": {"gamma_regularizer": null, "name": "batchnormalization_14", "epsilon": 0.001, "trainable": true, "mode": 0, "beta_regularizer": null, "momentum": 0.99, "axis": 2}, "inbound_nodes": [[["convolution1d_14", 0, 0]]], "name": "batchnormalization_14"}, {"class_name": "BatchNormalization", "config": {"gamma_regularizer": null, "name": "batchnormalization_24", "epsilon": 0.001, "trainable": true, "mode": 0, "beta_regularizer": null, "momentum": 0.99, "axis": 2}, "inbound_nodes": [[["convolution1d_24", 0, 0]]], "name": "batchnormalization_24"}, {"class_name": "Activation", "config": {"activation": "relu", "trainable": true, "name": "activation_14"}, "inbound_nodes": [[["batchnormalization_14", 0, 0]]], "name": "activation_14"}, {"class_name": "Activation", "config": {"activation": "relu", "trainable": true, "name": "activation_24"}, "inbound_nodes": [[["batchnormalization_24", 0, 0]]], "name": "activation_24"}, {"class_name": "Convolution1D", "config": {"W_constraint": null, "b_constraint": null, "name": "convolution1d_15", "activity_regularizer": null, "trainable": true, "filter_length": 6, "init": "he_normal", "bias": true, "nb_filter": 10, "input_dim": null, "subsample_length": 1, "border_mode": "same", "b_regularizer": null, "W_regularizer": null, "activation": "relu", "input_length": null}, "inbound_nodes": [[["activation_14", 0, 0]]], "name": "convolution1d_15"}, {"class_name": "Convolution1D", "config": {"W_constraint": null, "b_constraint": null, "name": "convolution1d_25", "activity_regularizer": null, "trainable": true, "filter_length": 10, "init": "he_normal", "bias": true, "nb_filter": 10, "input_dim": null, "subsample_length": 1, "border_mode": "same", "b_regularizer": null, "W_regularizer": null, "activation": "relu", "input_length": null}, "inbound_nodes": [[["activation_24", 0, 0]]], "name": "convolution1d_25"}, {"class_name": "BatchNormalization", "config": {"gamma_regularizer": null, "name": "batchnormalization_15", "epsilon": 0.001, "trainable": true, "mode": 0, "beta_regularizer": null, "momentum": 0.99, "axis": 2}, "inbound_nodes": [[["convolution1d_15", 0, 0]]], "name": "batchnormalization_15"}, {"class_name": "BatchNormalization", "config": {"gamma_regularizer": null, "name": "batchnormalization_25", "epsilon": 0.001, "trainable": true, "mode": 0, "beta_regularizer": null, "momentum": 0.99, "axis": 2}, "inbound_nodes": [[["convolution1d_25", 0, 0]]], "name": "batchnormalization_25"}, {"class_name": "Activation", "config": {"activation": "relu", "trainable": true, "name": "activation_15"}, "inbound_nodes": [[["batchnormalization_15", 0, 0]]], "name": "activation_15"}, {"class_name": "Activation", "config": {"activation": "relu", "trainable": true, "name": "activation_25"}, "inbound_nodes": [[["batchnormalization_25", 0, 0]]], "name": "activation_25"}, {"class_name": "Convolution1D", "config": {"W_constraint": null, "b_constraint": null, "name": "convolution1d_16", "activity_regularizer": null, "trainable": true, "filter_length": 6, "init": "he_normal", "bias": true, "nb_filter": 10, "input_dim": null, "subsample_length": 1, "border_mode": "same", "b_regularizer": null, "W_regularizer": null, "activation": "relu", "input_length": null}, "inbound_nodes": [[["activation_15", 0, 0]]], "name": "convolution1d_16"}, {"class_name": "Convolution1D", "config": {"W_constraint": null, "b_constraint": null, "name": "convolution1d_26", "activity_regularizer": null, "trainable": true, "filter_length": 10, "init": "he_normal", "bias": true, "nb_filter": 10, "input_dim": null, "subsample_length": 1, "border_mode": "same", "b_regularizer": null, "W_regularizer": null, "activation": "relu", "input_length": null}, "inbound_nodes": [[["activation_25", 0, 0]]], "name": "convolution1d_26"}, {"class_name": "BatchNormalization", "config": {"gamma_regularizer": null, "name": "batchnormalization_16", "epsilon": 0.001, "trainable": true, "mode": 0, "beta_regularizer": null, "momentum": 0.99, "axis": 2}, "inbound_nodes": [[["convolution1d_16", 0, 0]]], "name": "batchnormalization_16"}, {"class_name": "BatchNormalization", "config": {"gamma_regularizer": null, "name": "batchnormalization_26", "epsilon": 0.001, "trainable": true, "mode": 0, "beta_regularizer": null, "momentum": 0.99, "axis": 2}, "inbound_nodes": [[["convolution1d_26", 0, 0]]], "name": "batchnormalization_26"}, {"class_name": "Activation", "config": {"activation": "relu", "trainable": true, "name": "activation_16"}, "inbound_nodes": [[["batchnormalization_16", 0, 0]]], "name": "activation_16"}, {"class_name": "Activation", "config": {"activation": "relu", "trainable": true, "name": "activation_26"}, "inbound_nodes": [[["batchnormalization_26", 0, 0]]], "name": "activation_26"}, {"class_name": "Convolution1D", "config": {"W_constraint": null, "b_constraint": null, "name": "convolution1d_17", "activity_regularizer": null, "trainable": true, "filter_length": 6, "init": "he_normal", "bias": true, "nb_filter": 10, "input_dim": null, "subsample_length": 1, "border_mode": "same", "b_regularizer": null, "W_regularizer": null, "activation": "relu", "input_length": null}, "inbound_nodes": [[["activation_16", 0, 0]]], "name": "convolution1d_17"}, {"class_name": "Convolution1D", "config": {"W_constraint": null, "b_constraint": null, "name": "convolution1d_27", "activity_regularizer": null, "trainable": true, "filter_length": 10, "init": "he_normal", "bias": true, "nb_filter": 10, "input_dim": null, "subsample_length": 1, "border_mode": "same", "b_regularizer": null, "W_regularizer": null, "activation": "relu", "input_length": null}, "inbound_nodes": [[["activation_26", 0, 0]]], "name": "convolution1d_27"}, {"class_name": "BatchNormalization", "config": {"gamma_regularizer": null, "name": "batchnormalization_17", "epsilon": 0.001, "trainable": true, "mode": 0, "beta_regularizer": null, "momentum": 0.99, "axis": 2}, "inbound_nodes": [[["convolution1d_17", 0, 0]]], "name": "batchnormalization_17"}, {"class_name": "BatchNormalization", "config": {"gamma_regularizer": null, "name": "batchnormalization_27", "epsilon": 0.001, "trainable": true, "mode": 0, "beta_regularizer": null, "momentum": 0.99, "axis": 2}, "inbound_nodes": [[["convolution1d_27", 0, 0]]], "name": "batchnormalization_27"}, {"class_name": "Activation", "config": {"activation": "relu", "trainable": true, "name": "activation_17"}, "inbound_nodes": [[["batchnormalization_17", 0, 0]]], "name": "activation_17"}, {"class_name": "Activation", "config": {"activation": "relu", "trainable": true, "name": "activation_27"}, "inbound_nodes": [[["batchnormalization_27", 0, 0]]], "name": "activation_27"}, {"class_name": "Convolution1D", "config": {"W_constraint": null, "b_constraint": null, "name": "convolution1d_18", "activity_regularizer": null, "trainable": true, "filter_length": 6, "init": "he_normal", "bias": true, "nb_filter": 10, "input_dim": null, "subsample_length": 1, "border_mode": "same", "b_regularizer": null, "W_regularizer": null, "activation": "relu", "input_length": null}, "inbound_nodes": [[["activation_17", 0, 0]]], "name": "convolution1d_18"}, {"class_name": "Convolution1D", "config": {"W_constraint": null, "b_constraint": null, "name": "convolution1d_28", "activity_regularizer": null, "trainable": true, "filter_length": 10, "init": "he_normal", "bias": true, "nb_filter": 10, "input_dim": null, "subsample_length": 1, "border_mode": "same", "b_regularizer": null, "W_regularizer": null, "activation": "relu", "input_length": null}, "inbound_nodes": [[["activation_27", 0, 0]]], "name": "convolution1d_28"}, {"class_name": "BatchNormalization", "config": {"gamma_regularizer": null, "name": "batchnormalization_18", "epsilon": 0.001, "trainable": true, "mode": 0, "beta_regularizer": null, "momentum": 0.99, "axis": 2}, "inbound_nodes": [[["convolution1d_18", 0, 0]]], "name": "batchnormalization_18"}, {"class_name": "BatchNormalization", "config": {"gamma_regularizer": null, "name": "batchnormalization_28", "epsilon": 0.001, "trainable": true, "mode": 0, "beta_regularizer": null, "momentum": 0.99, "axis": 2}, "inbound_nodes": [[["convolution1d_28", 0, 0]]], "name": "batchnormalization_28"}, {"class_name": "Activation", "config": {"activation": "relu", "trainable": true, "name": "activation_18"}, "inbound_nodes": [[["batchnormalization_18", 0, 0]]], "name": "activation_18"}, {"class_name": "Activation", "config": {"activation": "relu", "trainable": true, "name": "activation_28"}, "inbound_nodes": [[["batchnormalization_28", 0, 0]]], "name": "activation_28"}, {"class_name": "Convolution1D", "config": {"W_constraint": null, "b_constraint": null, "name": "convolution1d_19", "activity_regularizer": null, "trainable": true, "filter_length": 6, "init": "he_normal", "bias": true, "nb_filter": 10, "input_dim": null, "subsample_length": 1, "border_mode": "same", "b_regularizer": null, "W_regularizer": null, "activation": "relu", "input_length": null}, "inbound_nodes": [[["activation_18", 0, 0]]], "name": "convolution1d_19"}, {"class_name": "Convolution1D", "config": {"W_constraint": null, "b_constraint": null, "name": "convolution1d_29", "activity_regularizer": null, "trainable": true, "filter_length": 10, "init": "he_normal", "bias": true, "nb_filter": 10, "input_dim": null, "subsample_length": 1, "border_mode": "same", "b_regularizer": null, "W_regularizer": null, "activation": "relu", "input_length": null}, "inbound_nodes": [[["activation_28", 0, 0]]], "name": "convolution1d_29"}, {"class_name": "BatchNormalization", "config": {"gamma_regularizer": null, "name": "batchnormalization_19", "epsilon": 0.001, "trainable": true, "mode": 0, "beta_regularizer": null, "momentum": 0.99, "axis": 2}, "inbound_nodes": [[["convolution1d_19", 0, 0]]], "name": "batchnormalization_19"}, {"class_name": "BatchNormalization", "config": {"gamma_regularizer": null, "name": "batchnormalization_29", "epsilon": 0.001, "trainable": true, "mode": 0, "beta_regularizer": null, "momentum": 0.99, "axis": 2}, "inbound_nodes": [[["convolution1d_29", 0, 0]]], "name": "batchnormalization_29"}, {"class_name": "Activation", "config": {"activation": "relu", "trainable": true, "name": "activation_19"}, "inbound_nodes": [[["batchnormalization_19", 0, 0]]], "name": "activation_19"}, {"class_name": "Activation", "config": {"activation": "relu", "trainable": true, "name": "activation_29"}, "inbound_nodes": [[["batchnormalization_29", 0, 0]]], "name": "activation_29"}, {"class_name": "Convolution1D", "config": {"W_constraint": null, "b_constraint": null, "name": "convolution1d_20", "activity_regularizer": null, "trainable": true, "filter_length": 6, "init": "he_normal", "bias": true, "nb_filter": 10, "input_dim": null, "subsample_length": 1, "border_mode": "same", "b_regularizer": null, "W_regularizer": null, "activation": "relu", "input_length": null}, "inbound_nodes": [[["activation_19", 0, 0]]], "name": "convolution1d_20"}, {"class_name": "Convolution1D", "config": {"W_constraint": null, "b_constraint": null, "name": "convolution1d_30", "activity_regularizer": null, "trainable": true, "filter_length": 10, "init": "he_normal", "bias": true, "nb_filter": 10, "input_dim": null, "subsample_length": 1, "border_mode": "same", "b_regularizer": null, "W_regularizer": null, "activation": "relu", "input_length": null}, "inbound_nodes": [[["activation_29", 0, 0]]], "name": "convolution1d_30"}, {"class_name": "BatchNormalization", "config": {"gamma_regularizer": null, "name": "batchnormalization_20", "epsilon": 0.001, "trainable": true, "mode": 0, "beta_regularizer": null, "momentum": 0.99, "axis": 2}, "inbound_nodes": [[["convolution1d_20", 0, 0]]], "name": "batchnormalization_20"}, {"class_name": "BatchNormalization", "config": {"gamma_regularizer": null, "name": "batchnormalization_30", "epsilon": 0.001, "trainable": true, "mode": 0, "beta_regularizer": null, "momentum": 0.99, "axis": 2}, "inbound_nodes": [[["convolution1d_30", 0, 0]]], "name": "batchnormalization_30"}, {"class_name": "Activation", "config": {"activation": "relu", "trainable": true, "name": "activation_20"}, "inbound_nodes": [[["batchnormalization_20", 0, 0]]], "name": "activation_20"}, {"class_name": "Activation", "config": {"activation": "relu", "trainable": true, "name": "activation_30"}, "inbound_nodes": [[["batchnormalization_30", 0, 0]]], "name": "activation_30"}, {"class_name": "K_max_pooling1d", "config": {"trainable": true, "ktop": 30, "name": "k_max_pooling1d_2"}, "inbound_nodes": [[["activation_20", 0, 0]]], "name": "k_max_pooling1d_2"}, {"class_name": "K_max_pooling1d", "config": {"trainable": true, "ktop": 30, "name": "k_max_pooling1d_3"}, "inbound_nodes": [[["activation_30", 0, 0]]], "name": "k_max_pooling1d_3"}, {"class_name": "Flatten", "config": {"trainable": true, "name": "flatten_2"}, "inbound_nodes": [[["k_max_pooling1d_2", 0, 0]]], "name": "flatten_2"}, {"class_name": "Flatten", "config": {"trainable": true, "name": "flatten_3"}, "inbound_nodes": [[["k_max_pooling1d_3", 0, 0]]], "name": "flatten_3"}, {"class_name": "Merge", "config": {"name": "merge_1", "concat_axis": -1, "mode_type": "raw", "dot_axes": -1, "output_mask_type": "raw", "arguments": {}, "output_mask": null, "mode": "concat", "output_shape": null, "output_shape_type": "raw"}, "inbound_nodes": [[["flatten_2", 0, 0], ["flatten_3", 0, 0]]], "name": "merge_1"}, {"class_name": "Dense", "config": {"W_constraint": {"m": 3, "name": "MaxNorm", "axis": 0}, "b_constraint": null, "name": "dense_3", "output_dim": 500, "activity_regularizer": null, "trainable": true, "init": "he_normal", "bias": true, "input_dtype": "float32", "input_dim": 600, "b_regularizer": null, "W_regularizer": null, "activation": "sigmoid", "batch_input_shape": [null, 600]}, "inbound_nodes": [[["merge_1", 0, 0]]], "name": "dense_3"}, {"class_name": "Dropout", "config": {"p": 0.2, "trainable": true, "name": "dropout_2"}, "inbound_nodes": [[["dense_3", 0, 0]]], "name": "dropout_2"}, {"class_name": "Dense", "config": {"W_constraint": null, "b_constraint": null, "name": "dense_4", "output_dim": 1195, "activity_regularizer": null, "trainable": true, "init": "he_normal", "bias": true, "input_dtype": "float32", "input_dim": 500, "b_regularizer": null, "W_regularizer": null, "activation": "softmax", "batch_input_shape": [null, 500]}, "inbound_nodes": [[["dropout_2", 0, 0]]], "name": "dense_4"}], "input_layers": [["input_2", 0, 0]], "output_layers": [["dense_4", 0, 0]], "name": "model_2"}}